…
10.0.16.13: tensor_parallel_group: <torch.distributed.distributed_c10d.ProcessGroup object at 0x7f0de4e85ff0>
10.0.16.14: tensor_parallel_group: <torch.distributed.distributed_c10d.ProcessGroup object at 0x7f53d4aa8630>
10.0.16.13: !deepspeed engine has no moe layers
10.0.16.13: tensor_parallel_group: <torch.distributed.distributed_c10d.ProcessGroup object at 0x7ffb16fcb230>
10.0.16.14: tensor_parallel_group: <torch.distributed.distributed_c10d.ProcessGroup object at 0x7f967d5e8b70>
10.0.16.13: !deepspeed engine has no moe layers
10.0.16.14: _replace_module: T5ForConditionalGeneration(
10.0.16.14:   (shared): Embedding(32128, 768)
10.0.16.14:   (encoder): T5Stack(
10.0.16.14:     (embed_tokens): Embedding(32128, 768)
10.0.16.14:     (block): ModuleList(
10.0.16.14:       (0): T5Block(
10.0.16.14:         (layer): ModuleList(
10.0.16.14:           (0): T5LayerSelfAttention(
10.0.16.14:             (SelfAttention): T5Attention(
10.0.16.14:               (q): Linear(in_features=768, out_features=768, bias=False)
10.0.16.14:               (k): Linear(in_features=768, out_features=768, bias=False)
10.0.16.14:               (v): Linear(in_features=768, out_features=768, bias=False)
10.0.16.14:               (o): Linear(in_features=768, out_features=768, bias=False)
10.0.16.14:               (relative_attention_bias): Embedding(32, 12)
10.0.16.14:             )
10.0.16.14:             (layer_norm): T5LayerNorm()
10.0.16.14:             (dropout): Dropout(p=0.1, inplace=False)
10.0.16.14:           )
10.0.16.14:           (1): T5LayerFF(
10.0.16.14:             (DenseReluDense): T5DenseGatedActDense(
10.0.16.14:               (wi_0): Linear(in_features=768, out_features=2048, bias=False)
10.0.16.14:               (wi_1): Linear(in_features=768, out_features=2048, bias=False)
10.0.16.14:               (wo): Linear(in_features=2048, out_features=768, bias=False)
10.0.16.14:               (dropout): Dropout(p=0.1, inplace=False)
10.0.16.14:               (act): NewGELUActivation()
10.0.16.14:             )
10.0.16.14:             (layer_norm): T5LayerNorm()
10.0.16.14:             (dropout): Dropout(p=0.1, inplace=False)
10.0.16.14:           )
10.0.16.14:         )
10.0.16.14:       )
10.0.16.14:       (1-11): 11 x T5Block(
10.0.16.14:         (layer): ModuleList(
10.0.16.14:           (0): T5LayerSelfAttention(
10.0.16.14:             (SelfAttention): T5Attention(
10.0.16.14:               (q): Linear(in_features=768, out_features=768, bias=False)
10.0.16.14:               (k): Linear(in_features=768, out_features=768, bias=False)
10.0.16.14:               (v): Linear(in_features=768, out_features=768, bias=False)
10.0.16.14:               (o): Linear(in_features=768, out_features=768, bias=False)
10.0.16.14:             )
10.0.16.14:             (layer_norm): T5LayerNorm()
10.0.16.14:             (dropout): Dropout(p=0.1, inplace=False)
10.0.16.14:           )
10.0.16.14:           (1): T5LayerFF(
10.0.16.14:             (DenseReluDense): T5DenseGatedActDense(
10.0.16.14:               (wi_0): Linear(in_features=768, out_features=2048, bias=False)
10.0.16.14:               (wi_1): Linear(in_features=768, out_features=2048, bias=False)
10.0.16.14:               (wo): Linear(in_features=2048, out_features=768, bias=False)
10.0.16.14:               (dropout): Dropout(p=0.1, inplace=False)
10.0.16.14:               (act): NewGELUActivation()
10.0.16.14:             )
10.0.16.14:             (layer_norm): T5LayerNorm()
10.0.16.14:             (dropout): Dropout(p=0.1, inplace=False)
10.0.16.14:           )
10.0.16.14:         )
10.0.16.14:       )
10.0.16.14:     )
10.0.16.14:     (final_layer_norm): T5LayerNorm()
10.0.16.14:     (dropout): Dropout(p=0.1, inplace=False)
10.0.16.14:   )
10.0.16.14:   (decoder): T5Stack(
10.0.16.14:     (embed_tokens): Embedding(32128, 768)
10.0.16.14:     (block): ModuleList(
10.0.16.14:       (0): T5Block(
10.0.16.14:         (layer): ModuleList(
10.0.16.14:           (0): T5LayerSelfAttention(
10.0.16.14:             (SelfAttention): T5Attention(
10.0.16.14:               (q): Linear(in_features=768, out_features=768, bias=False)
10.0.16.14:               (k): Linear(in_features=768, out_features=768, bias=False)
10.0.16.14:               (v): Linear(in_features=768, out_features=768, bias=False)
10.0.16.14:               (o): Linear(in_features=768, out_features=768, bias=False)
10.0.16.14:               (relative_attention_bias): Embedding(32, 12)
10.0.16.14:             )
10.0.16.14:             (layer_norm): T5LayerNorm()
10.0.16.14:             (dropout): Dropout(p=0.1, inplace=False)
10.0.16.14:           )
10.0.16.14:           (1): T5LayerCrossAttention(
10.0.16.14:             (EncDecAttention): T5Attention(
10.0.16.14:               (q): Linear(in_features=768, out_features=768, bias=False)
10.0.16.14:               (k): Linear(in_features=768, out_features=768, bias=False)
10.0.16.14:               (v): Linear(in_features=768, out_features=768, bias=False)
10.0.16.14:               (o): Linear(in_features=768, out_features=768, bias=False)
10.0.16.14:             )
10.0.16.14:             (layer_norm): T5LayerNorm()
10.0.16.14:             (dropout): Dropout(p=0.1, inplace=False)
10.0.16.14:           )
10.0.16.14:           (2): T5LayerFF(
10.0.16.14:             (DenseReluDense): T5DenseGatedActDense(
10.0.16.14:               (wi_0): Linear(in_features=768, out_features=2048, bias=False)
10.0.16.14:               (wi_1): Linear(in_features=768, out_features=2048, bias=False)
10.0.16.14:               (wo): Linear(in_features=2048, out_features=768, bias=False)
10.0.16.14:               (dropout): Dropout(p=0.1, inplace=False)
10.0.16.14:               (act): NewGELUActivation()
10.0.16.14:             )
10.0.16.14:             (layer_norm): T5LayerNorm()
10.0.16.14:             (dropout): Dropout(p=0.1, inplace=False)
10.0.16.14:           )
10.0.16.14:         )
10.0.16.14:       )
10.0.16.14:       (1-11): 11 x T5Block(
10.0.16.14:         (layer): ModuleList(
10.0.16.14:           (0): T5LayerSelfAttention(
10.0.16.14:             (SelfAttention): T5Attention(
10.0.16.14:               (q): Linear(in_features=768, out_features=768, bias=False)
10.0.16.14:               (k): Linear(in_features=768, out_features=768, bias=False)
10.0.16.14:               (v): Linear(in_features=768, out_features=768, bias=False)
10.0.16.14:               (o): Linear(in_features=768, out_features=768, bias=False)
10.0.16.14:             )
10.0.16.14:             (layer_norm): T5LayerNorm()
10.0.16.14:             (dropout): Dropout(p=0.1, inplace=False)
10.0.16.14:           )
10.0.16.14:           (1): T5LayerCrossAttention(
10.0.16.14:             (EncDecAttention): T5Attention(
10.0.16.14:               (q): Linear(in_features=768, out_features=768, bias=False)
10.0.16.14:               (k): Linear(in_features=768, out_features=768, bias=False)
10.0.16.14:               (v): Linear(in_features=768, out_features=768, bias=False)
10.0.16.14:               (o): Linear(in_features=768, out_features=768, bias=False)
10.0.16.14:             )
10.0.16.14:             (layer_norm): T5LayerNorm()
10.0.16.14:             (dropout): Dropout(p=0.1, inplace=False)
10.0.16.14:           )
10.0.16.14:           (2): T5LayerFF(
10.0.16.14:             (DenseReluDense): T5DenseGatedActDense(
10.0.16.14:               (wi_0): Linear(in_features=768, out_features=2048, bias=False)
10.0.16.14:               (wi_1): Linear(in_features=768, out_features=2048, bias=False)
10.0.16.14:               (wo): Linear(in_features=2048, out_features=768, bias=False)
10.0.16.14:               (dropout): Dropout(p=0.1, inplace=False)
10.0.16.14:               (act): NewGELUActivation()
10.0.16.14:             )
10.0.16.14:             (layer_norm): T5LayerNorm()
10.0.16.14:             (dropout): Dropout(p=0.1, inplace=False)
10.0.16.14:           )
10.0.16.14:         )
10.0.16.14:       )
10.0.16.14:     )
10.0.16.14:     (final_layer_norm): T5LayerNorm()
10.0.16.14:     (dropout): Dropout(p=0.1, inplace=False)
10.0.16.14:   )
10.0.16.14:   (lm_head): Linear(in_features=768, out_features=32128, bias=False)
10.0.16.14: )
10.0.16.13: replace without policy
10.0.16.13: all_reduce_linears: ('EncDecAttention.o', 'SelfAttention.o', 'DenseReluDense.wo')
10.0.16.13: replace without policy
10.0.16.13: all_reduce_linears: ('SelfAttention.o', 'EncDecAttention.o', 'DenseReluDense.wo')
10.0.16.14: _replace_module: Embedding(32128, 768)
10.0.16.13: slice embedding
10.0.16.13: slice embedding
10.0.16.13: replace without policy
10.0.16.13: all_reduce_linears: ('SelfAttention.o', 'EncDecAttention.o', 'DenseReluDense.wo')
10.0.16.13: replace without policy
10.0.16.13: all_reduce_linears: ('EncDecAttention.o', 'SelfAttention.o', 'DenseReluDense.wo')
10.0.16.13: replace without policy
10.0.16.13: all_reduce_linears: ('SelfAttention.o', 'EncDecAttention.o', 'DenseReluDense.wo')
10.0.16.13: replace without policy
10.0.16.13: all_reduce_linears: ('EncDecAttention.o', 'SelfAttention.o', 'DenseReluDense.wo')
10.0.16.14: _replace_module: T5Stack(
10.0.16.14:   (embed_tokens): Embedding(32128, 768)
10.0.16.14:   (block): ModuleList(
10.0.16.14:     (0): T5Block(
10.0.16.14:       (layer): ModuleList(
10.0.16.14:         (0): T5LayerSelfAttention(
10.0.16.14:           (SelfAttention): T5Attention(
10.0.16.14:             (q): Linear(in_features=768, out_features=768, bias=False)
10.0.16.14:             (k): Linear(in_features=768, out_features=768, bias=False)
10.0.16.14:             (v): Linear(in_features=768, out_features=768, bias=False)
10.0.16.14:             (o): Linear(in_features=768, out_features=768, bias=False)
10.0.16.14:             (relative_attention_bias): Embedding(32, 12)
10.0.16.14:           )
10.0.16.14:           (layer_norm): T5LayerNorm()
10.0.16.14:           (dropout): Dropout(p=0.1, inplace=False)
10.0.16.14:         )
10.0.16.14:         (1): T5LayerFF(
10.0.16.14:           (DenseReluDense): T5DenseGatedActDense(
10.0.16.14:             (wi_0): Linear(in_features=768, out_features=2048, bias=False)
10.0.16.14:             (wi_1): Linear(in_features=768, out_features=2048, bias=False)
10.0.16.14:             (wo): Linear(in_features=2048, out_features=768, bias=False)
10.0.16.14:             (dropout): Dropout(p=0.1, inplace=False)
10.0.16.14:             (act): NewGELUActivation()
10.0.16.14:           )
10.0.16.14:           (layer_norm): T5LayerNorm()
10.0.16.14:           (dropout): Dropout(p=0.1, inplace=False)
10.0.16.14:         )
10.0.16.14:       )
10.0.16.14:     )
10.0.16.14:     (1-11): 11 x T5Block(
10.0.16.14:       (layer): ModuleList(
10.0.16.14:         (0): T5LayerSelfAttention(
10.0.16.14:           (SelfAttention): T5Attention(
10.0.16.14:             (q): Linear(in_features=768, out_features=768, bias=False)
10.0.16.14:             (k): Linear(in_features=768, out_features=768, bias=False)
10.0.16.14:             (v): Linear(in_features=768, out_features=768, bias=False)
10.0.16.14:             (o): Linear(in_features=768, out_features=768, bias=False)
10.0.16.14:           )
10.0.16.14:           (layer_norm): T5LayerNorm()
10.0.16.14:           (dropout): Dropout(p=0.1, inplace=False)
10.0.16.14:         )
10.0.16.14:         (1): T5LayerFF(
10.0.16.14:           (DenseReluDense): T5DenseGatedActDense(
10.0.16.14:             (wi_0): Linear(in_features=768, out_features=2048, bias=False)
10.0.16.14:             (wi_1): Linear(in_features=768, out_features=2048, bias=False)
10.0.16.14:             (wo): Linear(in_features=2048, out_features=768, bias=False)
10.0.16.14:             (dropout): Dropout(p=0.1, inplace=False)
10.0.16.14:             (act): NewGELUActivation()
10.0.16.14:           )
10.0.16.14:           (layer_norm): T5LayerNorm()
10.0.16.14:           (dropout): Dropout(p=0.1, inplace=False)
10.0.16.14:         )
10.0.16.14:       )
10.0.16.14:     )
10.0.16.14:   )
10.0.16.14:   (final_layer_norm): T5LayerNorm()
10.0.16.14:   (dropout): Dropout(p=0.1, inplace=False)
10.0.16.14: )
10.0.16.14: _replace_module: Embedding(32128, 768)
10.0.16.14: _replace_module: ModuleList(
10.0.16.14:   (0): T5Block(
10.0.16.14:     (layer): ModuleList(
10.0.16.14:       (0): T5LayerSelfAttention(
10.0.16.14:         (SelfAttention): T5Attention(
10.0.16.14:           (q): Linear(in_features=768, out_features=768, bias=False)
10.0.16.14:           (k): Linear(in_features=768, out_features=768, bias=False)
10.0.16.14:           (v): Linear(in_features=768, out_features=768, bias=False)
10.0.16.14:           (o): Linear(in_features=768, out_features=768, bias=False)
10.0.16.14:           (relative_attention_bias): Embedding(32, 12)
10.0.16.14:         )
10.0.16.14:         (layer_norm): T5LayerNorm()
10.0.16.14:         (dropout): Dropout(p=0.1, inplace=False)
10.0.16.14:       )
10.0.16.14:       (1): T5LayerFF(
10.0.16.14:         (DenseReluDense): T5DenseGatedActDense(
10.0.16.14:           (wi_0): Linear(in_features=768, out_features=2048, bias=False)
10.0.16.14:           (wi_1): Linear(in_features=768, out_features=2048, bias=False)
10.0.16.14:           (wo): Linear(in_features=2048, out_features=768, bias=False)
10.0.16.14:           (dropout): Dropout(p=0.1, inplace=False)
10.0.16.14:           (act): NewGELUActivation()
10.0.16.14:         )
10.0.16.14:         (layer_norm): T5LayerNorm()
10.0.16.14:         (dropout): Dropout(p=0.1, inplace=False)
10.0.16.14:       )
10.0.16.14:     )
10.0.16.14:   )
10.0.16.14:   (1-11): 11 x T5Block(
10.0.16.14:     (layer): ModuleList(
10.0.16.14:       (0): T5LayerSelfAttention(
10.0.16.14:         (SelfAttention): T5Attention(
10.0.16.14:           (q): Linear(in_features=768, out_features=768, bias=False)
10.0.16.14:           (k): Linear(in_features=768, out_features=768, bias=False)
10.0.16.14:           (v): Linear(in_features=768, out_features=768, bias=False)
10.0.16.14:           (o): Linear(in_features=768, out_features=768, bias=False)
10.0.16.14:         )
10.0.16.14:         (layer_norm): T5LayerNorm()
10.0.16.14:         (dropout): Dropout(p=0.1, inplace=False)
10.0.16.14:       )
10.0.16.13: replace without policy
10.0.16.13: all_reduce_linears: ('SelfAttention.o', 'EncDecAttention.o', 'DenseReluDense.wo')
10.0.16.14:       (1): T5LayerFF(
10.0.16.14:         (DenseReluDense): T5DenseGatedActDense(
10.0.16.14:           (wi_0): Linear(in_features=768, out_features=2048, bias=False)
10.0.16.14:           (wi_1): Linear(in_features=768, out_features=2048, bias=False)
10.0.16.14:           (wo): Linear(in_features=2048, out_features=768, bias=False)
10.0.16.14:           (dropout): Dropout(p=0.1, inplace=False)
10.0.16.14:           (act): NewGELUActivation()
10.0.16.14:         )
10.0.16.14:         (layer_norm): T5LayerNorm()
10.0.16.13: replace without policy
10.0.16.14:         (dropout): Dropout(p=0.1, inplace=False)
10.0.16.13: all_reduce_linears: ('EncDecAttention.o', 'SelfAttention.o', 'DenseReluDense.wo')
…
10.0.16.14: _replace_module: Dropout(p=0.1, inplace=False)
10.0.16.14: replace without policy
10.0.16.14: all_reduce_linears: ('SelfAttention.o', 'DenseReluDense.wo', 'EncDecAttention.o')
10.0.16.13: replace without policy
10.0.16.13: all_reduce_linears: ('EncDecAttention.o', 'SelfAttention.o', 'DenseReluDense.wo')
10.0.16.13: replace without policy
10.0.16.13: all_reduce_linears: ('SelfAttention.o', 'EncDecAttention.o', 'DenseReluDense.wo')
10.0.16.14: replace without policy
10.0.16.14: all_reduce_linears: ('SelfAttention.o', 'DenseReluDense.wo', 'EncDecAttention.o')
10.0.16.14: _replace_module: T5Stack(
10.0.16.14:   (embed_tokens): Embedding(32128, 768)
10.0.16.14:   (block): ModuleList(
10.0.16.14:     (0): T5Block(
10.0.16.14:       (layer): ModuleList(
10.0.16.14:         (0): T5LayerSelfAttention(
10.0.16.14:           (SelfAttention): T5Attention(
10.0.16.14:             (q): Linear(in_features=768, out_features=768, bias=False)
10.0.16.14:             (k): Linear(in_features=768, out_features=768, bias=False)
10.0.16.14:             (v): Linear(in_features=768, out_features=768, bias=False)
10.0.16.14:             (o): Linear(in_features=768, out_features=768, bias=False)
10.0.16.14:             (relative_attention_bias): Embedding(32, 12)
10.0.16.14:           )
10.0.16.14:           (layer_norm): T5LayerNorm()
10.0.16.14:           (dropout): Dropout(p=0.1, inplace=False)
10.0.16.14:         )
10.0.16.14:         (1): T5LayerCrossAttention(
10.0.16.14:           (EncDecAttention): T5Attention(
10.0.16.14:             (q): Linear(in_features=768, out_features=768, bias=False)
10.0.16.14:             (k): Linear(in_features=768, out_features=768, bias=False)
10.0.16.14:             (v): Linear(in_features=768, out_features=768, bias=False)
10.0.16.14:             (o): Linear(in_features=768, out_features=768, bias=False)
10.0.16.14:           )
10.0.16.14:           (layer_norm): T5LayerNorm()
10.0.16.14:           (dropout): Dropout(p=0.1, inplace=False)
10.0.16.14:         )
10.0.16.14:         (2): T5LayerFF(
10.0.16.14:           (DenseReluDense): T5DenseGatedActDense(
10.0.16.14:             (wi_0): Linear(in_features=768, out_features=2048, bias=False)
10.0.16.14:             (wi_1): Linear(in_features=768, out_features=2048, bias=False)
10.0.16.14:             (wo): Linear(in_features=2048, out_features=768, bias=False)
10.0.16.14:             (dropout): Dropout(p=0.1, inplace=False)
10.0.16.14:             (act): NewGELUActivation()
10.0.16.14:           )
10.0.16.14:           (layer_norm): T5LayerNorm()
10.0.16.14:           (dropout): Dropout(p=0.1, inplace=False)
10.0.16.14:         )
10.0.16.14:       )
10.0.16.14:     )
10.0.16.14:     (1-11): 11 x T5Block(
10.0.16.14:       (layer): ModuleList(
10.0.16.14:         (0): T5LayerSelfAttention(
10.0.16.14:           (SelfAttention): T5Attention(
10.0.16.14:             (q): Linear(in_features=768, out_features=768, bias=False)
10.0.16.14:             (k): Linear(in_features=768, out_features=768, bias=False)
10.0.16.13: replace without policy
10.0.16.14:             (v): Linear(in_features=768, out_features=768, bias=False)
10.0.16.14:             (o): Linear(in_features=768, out_features=768, bias=False)
10.0.16.14:           )
10.0.16.14:           (layer_norm): T5LayerNorm()
10.0.16.14:           (dropout): Dropout(p=0.1, inplace=False)
10.0.16.14:         )
10.0.16.13: all_reduce_linears: ('EncDecAttention.o', 'SelfAttention.o', 'DenseReluDense.wo')
10.0.16.13: replace without policy
10.0.16.13: all_reduce_linears: ('SelfAttention.o', 'EncDecAttention.o', 'DenseReluDense.wo')
10.0.16.14:         (1): T5LayerCrossAttention(
10.0.16.14:           (EncDecAttention): T5Attention(
10.0.16.14:             (q): Linear(in_features=768, out_features=768, bias=False)
10.0.16.14:             (k): Linear(in_features=768, out_features=768, bias=False)
10.0.16.14:             (v): Linear(in_features=768, out_features=768, bias=False)
10.0.16.14:             (o): Linear(in_features=768, out_features=768, bias=False)
10.0.16.14:           )
10.0.16.14:           (layer_norm): T5LayerNorm()
10.0.16.14:           (dropout): Dropout(p=0.1, inplace=False)
10.0.16.14:         )
10.0.16.14:         (2): T5LayerFF(
10.0.16.14:           (DenseReluDense): T5DenseGatedActDense(
10.0.16.14:             (wi_0): Linear(in_features=768, out_features=2048, bias=False)
10.0.16.14:             (wi_1): Linear(in_features=768, out_features=2048, bias=False)
10.0.16.14:             (wo): Linear(in_features=2048, out_features=768, bias=False)
10.0.16.14:             (dropout): Dropout(p=0.1, inplace=False)
10.0.16.14:             (act): NewGELUActivation()
10.0.16.14:           )
10.0.16.14:           (layer_norm): T5LayerNorm()
10.0.16.14:           (dropout): Dropout(p=0.1, inplace=False)
10.0.16.14:         )
10.0.16.14:       )
10.0.16.14:     )
10.0.16.14:   )
10.0.16.14:   (final_layer_norm): T5LayerNorm()
10.0.16.14:   (dropout): Dropout(p=0.1, inplace=False)
10.0.16.14: )
10.0.16.14: _replace_module: Embedding(32128, 768)
10.0.16.14: _replace_module: ModuleList(
10.0.16.14:   (0): T5Block(
10.0.16.14:     (layer): ModuleList(
10.0.16.14:       (0): T5LayerSelfAttention(
10.0.16.14:         (SelfAttention): T5Attention(
10.0.16.14:           (q): Linear(in_features=768, out_features=768, bias=False)
10.0.16.14:           (k): Linear(in_features=768, out_features=768, bias=False)
10.0.16.14:           (v): Linear(in_features=768, out_features=768, bias=False)
10.0.16.14:           (o): Linear(in_features=768, out_features=768, bias=False)
10.0.16.14:           (relative_attention_bias): Embedding(32, 12)
10.0.16.14:         )
10.0.16.14:         (layer_norm): T5LayerNorm()
10.0.16.14:         (dropout): Dropout(p=0.1, inplace=False)
10.0.16.14:       )
10.0.16.14:       (1): T5LayerCrossAttention(
10.0.16.14:         (EncDecAttention): T5Attention(
10.0.16.14:           (q): Linear(in_features=768, out_features=768, bias=False)
10.0.16.14:           (k): Linear(in_features=768, out_features=768, bias=False)
10.0.16.14:           (v): Linear(in_features=768, out_features=768, bias=False)
10.0.16.14:           (o): Linear(in_features=768, out_features=768, bias=False)
10.0.16.14:         )
10.0.16.14:         (layer_norm): T5LayerNorm()
10.0.16.14:         (dropout): Dropout(p=0.1, inplace=False)
10.0.16.14:       )
10.0.16.14:       (2): T5LayerFF(
10.0.16.14:         (DenseReluDense): T5DenseGatedActDense(
10.0.16.14:           (wi_0): Linear(in_features=768, out_features=2048, bias=False)
10.0.16.14:           (wi_1): Linear(in_features=768, out_features=2048, bias=False)
10.0.16.14:           (wo): Linear(in_features=2048, out_features=768, bias=False)
10.0.16.14:           (dropout): Dropout(p=0.1, inplace=False)
10.0.16.14:           (act): NewGELUActivation()
10.0.16.14:         )
10.0.16.14:         (layer_norm): T5LayerNorm()
10.0.16.14:         (dropout): Dropout(p=0.1, inplace=False)
10.0.16.14:       )
10.0.16.14:     )
10.0.16.14:   )
10.0.16.14:   (1-11): 11 x T5Block(
10.0.16.14:     (layer): ModuleList(
10.0.16.14:       (0): T5LayerSelfAttention(
10.0.16.14:         (SelfAttention): T5Attention(
10.0.16.14:           (q): Linear(in_features=768, out_features=768, bias=False)
10.0.16.14:           (k): Linear(in_features=768, out_features=768, bias=False)
10.0.16.14:           (v): Linear(in_features=768, out_features=768, bias=False)
10.0.16.14:           (o): Linear(in_features=768, out_features=768, bias=False)
10.0.16.14:         )
10.0.16.14:         (layer_norm): T5LayerNorm()
10.0.16.14:         (dropout): Dropout(p=0.1, inplace=False)
10.0.16.14:       )
10.0.16.14:       (1): T5LayerCrossAttention(
10.0.16.14:         (EncDecAttention): T5Attention(
10.0.16.14:           (q): Linear(in_features=768, out_features=768, bias=False)
10.0.16.14:           (k): Linear(in_features=768, out_features=768, bias=False)
10.0.16.14:           (v): Linear(in_features=768, out_features=768, bias=False)
10.0.16.14:           (o): Linear(in_features=768, out_features=768, bias=False)
10.0.16.14:         )
10.0.16.14:         (layer_norm): T5LayerNorm()
10.0.16.14:         (dropout): Dropout(p=0.1, inplace=False)
10.0.16.14:       )
10.0.16.14:       (2): T5LayerFF(
10.0.16.14:         (DenseReluDense): T5DenseGatedActDense(
10.0.16.14:           (wi_0): Linear(in_features=768, out_features=2048, bias=False)
10.0.16.14:           (wi_1): Linear(in_features=768, out_features=2048, bias=False)
10.0.16.14:           (wo): Linear(in_features=2048, out_features=768, bias=False)
10.0.16.14:           (dropout): Dropout(p=0.1, inplace=False)
10.0.16.14:           (act): NewGELUActivation()
10.0.16.14:         )
10.0.16.14:         (layer_norm): T5LayerNorm()
10.0.16.14:         (dropout): Dropout(p=0.1, inplace=False)
10.0.16.14:       )
10.0.16.14:     )
10.0.16.14:   )
10.0.16.14: )
10.0.16.14: replace without policy
10.0.16.14: all_reduce_linears: ('SelfAttention.o', 'DenseReluDense.wo', 'EncDecAttention.o')
…
