…
[2024-03-04 09:17:11,925] [WARNING] [comm.py:152:init_deepspeed_backend] NCCL backend in DeepSpeed not yet implemented
[2024-03-04 09:17:11,925] [INFO] [comm.py:594:init_distributed] cdb=None
tensor_parallel_group: <torch.distributed.distributed_c10d.ProcessGroup object at 0x7f0d3ba037f0>
!deepspeed engine has no moe layers
tensor_parallel_group: <torch.distributed.distributed_c10d.ProcessGroup object at 0x7f71b22588f0>
!deepspeed engine has no moe layers
AutoTP:  [(<class 'transformers.models.bloom.modeling_bloom.BloomBlock'>, ['self_attention.dense', 'mlp.dense_4h_to_h'])]
replace transformer layer
BloomForCausalLM(
  (transformer): BloomModel(
    (word_embeddings): Embedding(250880, 2560)
    (word_embeddings_layernorm): LayerNorm((2560,), eps=1e-05, elementwise_affine=True)
    (h): ModuleList(
      (0-29): 30 x BloomBlock(
        (input_layernorm): LayerNorm((2560,), eps=1e-05, elementwise_affine=True)
        (self_attention): BloomAttention(
          (query_key_value): Linear(in_features=2560, out_features=7680, bias=True)
          (dense): Linear(in_features=2560, out_features=2560, bias=True)
          (attention_dropout): Dropout(p=0.0, inplace=False)
        )
        (post_attention_layernorm): LayerNorm((2560,), eps=1e-05, elementwise_affine=True)
        (mlp): BloomMLP(
          (dense_h_to_4h): Linear(in_features=2560, out_features=10240, bias=True)
          (gelu_impl): BloomGelu()
          (dense_4h_to_h): Linear(in_features=10240, out_features=2560, bias=True)
        )
      )
    )
    (ln_f): LayerNorm((2560,), eps=1e-05, elementwise_affine=True)
  )
  (lm_head): Linear(in_features=2560, out_features=250880, bias=False)
)
AutoTP:  [(<class 'transformers.models.bloom.modeling_bloom.BloomBlock'>, ['mlp.dense_4h_to_h', 'self_attention.dense'])]
replace transformer layer
BloomModel(
  (word_embeddings): Embedding(250880, 2560)
  (word_embeddings_layernorm): LayerNorm((2560,), eps=1e-05, elementwise_affine=True)
  (h): ModuleList(
    (0-29): 30 x BloomBlock(
      (input_layernorm): LayerNorm((2560,), eps=1e-05, elementwise_affine=True)
      (self_attention): BloomAttention(
        (query_key_value): Linear(in_features=2560, out_features=7680, bias=True)
        (dense): Linear(in_features=2560, out_features=2560, bias=True)
        (attention_dropout): Dropout(p=0.0, inplace=False)
      )
      (post_attention_layernorm): LayerNorm((2560,), eps=1e-05, elementwise_affine=True)
      (mlp): BloomMLP(
        (dense_h_to_4h): Linear(in_features=2560, out_features=10240, bias=True)
        (gelu_impl): BloomGelu()
        (dense_4h_to_h): Linear(in_features=10240, out_features=2560, bias=True)
      )
    )
  )
  (ln_f): LayerNorm((2560,), eps=1e-05, elementwise_affine=True)
)
Embedding(250880, 2560)
LayerNorm((2560,), eps=1e-05, elementwise_affine=True)
ModuleList(
  (0-29): 30 x BloomBlock(
    (input_layernorm): LayerNorm((2560,), eps=1e-05, elementwise_affine=True)
    (self_attention): BloomAttention(
      (query_key_value): Linear(in_features=2560, out_features=7680, bias=True)
      (dense): Linear(in_features=2560, out_features=2560, bias=True)
      (attention_dropout): Dropout(p=0.0, inplace=False)
    )
    (post_attention_layernorm): LayerNorm((2560,), eps=1e-05, elementwise_affine=True)
    (mlp): BloomMLP(
      (dense_h_to_4h): Linear(in_features=2560, out_features=10240, bias=True)
      (gelu_impl): BloomGelu()
      (dense_4h_to_h): Linear(in_features=10240, out_features=2560, bias=True)
    )
  )
)
BloomForCausalLM(
  (transformer): BloomModel(
    (word_embeddings): Embedding(250880, 2560)
    (word_embeddings_layernorm): LayerNorm((2560,), eps=1e-05, elementwise_affine=True)
    (h): ModuleList(
      (0-29): 30 x BloomBlock(
        (input_layernorm): LayerNorm((2560,), eps=1e-05, elementwise_affine=True)
        (self_attention): BloomAttention(
          (query_key_value): Linear(in_features=2560, out_features=7680, bias=True)
          (dense): Linear(in_features=2560, out_features=2560, bias=True)
          (attention_dropout): Dropout(p=0.0, inplace=False)
        )
        (post_attention_layernorm): LayerNorm((2560,), eps=1e-05, elementwise_affine=True)
        (mlp): BloomMLP(
          (dense_h_to_4h): Linear(in_features=2560, out_features=10240, bias=True)
          (gelu_impl): BloomGelu()
          (dense_4h_to_h): Linear(in_features=10240, out_features=2560, bias=True)
        )
      )
    )
    (ln_f): LayerNorm((2560,), eps=1e-05, elementwise_affine=True)
  )
  (lm_head): Linear(in_features=2560, out_features=250880, bias=False)
)
BloomModel(
  (word_embeddings): Embedding(250880, 2560)
  (word_embeddings_layernorm): LayerNorm((2560,), eps=1e-05, elementwise_affine=True)
  (h): ModuleList(
    (0-29): 30 x BloomBlock(
      (input_layernorm): LayerNorm((2560,), eps=1e-05, elementwise_affine=True)
      (self_attention): BloomAttention(
        (query_key_value): Linear(in_features=2560, out_features=7680, bias=True)
        (dense): Linear(in_features=2560, out_features=2560, bias=True)
        (attention_dropout): Dropout(p=0.0, inplace=False)
      )
      (post_attention_layernorm): LayerNorm((2560,), eps=1e-05, elementwise_affine=True)
      (mlp): BloomMLP(
        (dense_h_to_4h): Linear(in_features=2560, out_features=10240, bias=True)
        (gelu_impl): BloomGelu()
        (dense_4h_to_h): Linear(in_features=10240, out_features=2560, bias=True)
      )
    )
  )
  (ln_f): LayerNorm((2560,), eps=1e-05, elementwise_affine=True)
)
Embedding(250880, 2560)
LayerNorm((2560,), eps=1e-05, elementwise_affine=True)
ModuleList(
  (0-29): 30 x BloomBlock(
    (input_layernorm): LayerNorm((2560,), eps=1e-05, elementwise_affine=True)
    (self_attention): BloomAttention(
      (query_key_value): Linear(in_features=2560, out_features=7680, bias=True)
      (dense): Linear(in_features=2560, out_features=2560, bias=True)
      (attention_dropout): Dropout(p=0.0, inplace=False)
    )
    (post_attention_layernorm): LayerNorm((2560,), eps=1e-05, elementwise_affine=True)
    (mlp): BloomMLP(
      (dense_h_to_4h): Linear(in_features=2560, out_features=10240, bias=True)
      (gelu_impl): BloomGelu()
      (dense_4h_to_h): Linear(in_features=10240, out_features=2560, bias=True)
    )
  )
)
LayerNorm((2560,), eps=1e-05, elementwise_affine=True)
Linear(in_features=2560, out_features=250880, bias=False)
LayerNorm((2560,), eps=1e-05, elementwise_affine=True)
Linear(in_features=2560, out_features=250880, bias=False)
local_rank: 1
shape: torch.Size([2, 7, 2560])
hidden_size: 1280
[2024-03-04 09:17:15,911] [INFO] [utils.py:785:see_memory_usage] after init_inference
…
