…
10.0.16.13: tensor_parallel_group: <torch.distributed.distributed_c10d.ProcessGroup object at 0x7f14c55624b0>
10.0.16.13: !deepspeed engine has no moe layers
10.0.16.14: tensor_parallel_group: <torch.distributed.distributed_c10d.ProcessGroup object at 0x7f35e3d3dd30>
10.0.16.13: replace without policy
10.0.16.13: all_reduce_linears: ('self_attn.out_proj', '.fc2')
10.0.16.13: replace without policy
10.0.16.13: all_reduce_linears: ('.fc2', 'self_attn.out_proj')
10.0.16.14: tensor_parallel_group: <torch.distributed.distributed_c10d.ProcessGroup object at 0x7f71102e2370>
10.0.16.14: _replace_module: BartForConditionalGeneration(
10.0.16.14:   (model): BartModel(
10.0.16.14:     (shared): Embedding(50265, 768, padding_idx=1)
10.0.16.14:     (encoder): BartEncoder(
10.0.16.14:       (embed_tokens): Embedding(50265, 768, padding_idx=1)
10.0.16.14:       (embed_positions): BartLearnedPositionalEmbedding(1026, 768)
10.0.16.14:       (layers): ModuleList(
10.0.16.14:         (0-5): 6 x BartEncoderLayer(
10.0.16.14:           (self_attn): BartAttention(
10.0.16.14:             (k_proj): Linear(in_features=768, out_features=768, bias=True)
10.0.16.14:             (v_proj): Linear(in_features=768, out_features=768, bias=True)
10.0.16.14:             (q_proj): Linear(in_features=768, out_features=768, bias=True)
10.0.16.14:             (out_proj): Linear(in_features=768, out_features=768, bias=True)
10.0.16.14:           )
10.0.16.14:           (self_attn_layer_norm): LayerNorm((768,), eps=1e-05, elementwise_affine=True)
10.0.16.14:           (activation_fn): GELUActivation()
10.0.16.14:           (fc1): Linear(in_features=768, out_features=3072, bias=True)
10.0.16.14:           (fc2): Linear(in_features=3072, out_features=768, bias=True)
10.0.16.14:           (final_layer_norm): LayerNorm((768,), eps=1e-05, elementwise_affine=True)
10.0.16.14:         )
10.0.16.14:       )
10.0.16.14:       (layernorm_embedding): LayerNorm((768,), eps=1e-05, elementwise_affine=True)
10.0.16.14:     )
10.0.16.14:     (decoder): BartDecoder(
10.0.16.14:       (embed_tokens): Embedding(50265, 768, padding_idx=1)
10.0.16.14:       (embed_positions): BartLearnedPositionalEmbedding(1026, 768)
10.0.16.14:       (layers): ModuleList(
10.0.16.14:         (0-5): 6 x BartDecoderLayer(
10.0.16.14:           (self_attn): BartAttention(
10.0.16.14:             (k_proj): Linear(in_features=768, out_features=768, bias=True)
10.0.16.14:             (v_proj): Linear(in_features=768, out_features=768, bias=True)
10.0.16.14:             (q_proj): Linear(in_features=768, out_features=768, bias=True)
10.0.16.14:             (out_proj): Linear(in_features=768, out_features=768, bias=True)
10.0.16.14:           )
10.0.16.14:           (activation_fn): GELUActivation()
10.0.16.14:           (self_attn_layer_norm): LayerNorm((768,), eps=1e-05, elementwise_affine=True)
10.0.16.14:           (encoder_attn): BartAttention(
10.0.16.14:             (k_proj): Linear(in_features=768, out_features=768, bias=True)
10.0.16.14:             (v_proj): Linear(in_features=768, out_features=768, bias=True)
10.0.16.14:             (q_proj): Linear(in_features=768, out_features=768, bias=True)
10.0.16.14:             (out_proj): Linear(in_features=768, out_features=768, bias=True)
10.0.16.14:           )
10.0.16.14:           (encoder_attn_layer_norm): LayerNorm((768,), eps=1e-05, elementwise_affine=True)
10.0.16.14:           (fc1): Linear(in_features=768, out_features=3072, bias=True)
10.0.16.14:           (fc2): Linear(in_features=3072, out_features=768, bias=True)
10.0.16.14:           (final_layer_norm): LayerNorm((768,), eps=1e-05, elementwise_affine=True)
10.0.16.14:         )
10.0.16.14:       )
10.0.16.14:       (layernorm_embedding): LayerNorm((768,), eps=1e-05, elementwise_affine=True)
10.0.16.14:     )
10.0.16.14:   )
10.0.16.14:   (lm_head): Linear(in_features=768, out_features=50265, bias=False)
10.0.16.14: )
10.0.16.13: replace without policy
10.0.16.13: all_reduce_linears: ('self_attn.out_proj', '.fc2')
10.0.16.13: replace without policy
10.0.16.13: all_reduce_linears: ('self_attn.out_proj', '.fc2')
10.0.16.14: _replace_module: BartModel(
10.0.16.14:   (shared): Embedding(50265, 768, padding_idx=1)
10.0.16.14:   (encoder): BartEncoder(
10.0.16.14:     (embed_tokens): Embedding(50265, 768, padding_idx=1)
10.0.16.14:     (embed_positions): BartLearnedPositionalEmbedding(1026, 768)
10.0.16.14:     (layers): ModuleList(
10.0.16.14:       (0-5): 6 x BartEncoderLayer(
10.0.16.14:         (self_attn): BartAttention(
10.0.16.14:           (k_proj): Linear(in_features=768, out_features=768, bias=True)
10.0.16.14:           (v_proj): Linear(in_features=768, out_features=768, bias=True)
10.0.16.14:           (q_proj): Linear(in_features=768, out_features=768, bias=True)
10.0.16.14:           (out_proj): Linear(in_features=768, out_features=768, bias=True)
10.0.16.14:         )
10.0.16.14:         (self_attn_layer_norm): LayerNorm((768,), eps=1e-05, elementwise_affine=True)
10.0.16.14:         (activation_fn): GELUActivation()
10.0.16.14:         (fc1): Linear(in_features=768, out_features=3072, bias=True)
10.0.16.14:         (fc2): Linear(in_features=3072, out_features=768, bias=True)
10.0.16.14:         (final_layer_norm): LayerNorm((768,), eps=1e-05, elementwise_affine=True)
10.0.16.14:       )
10.0.16.14:     )
10.0.16.14:     (layernorm_embedding): LayerNorm((768,), eps=1e-05, elementwise_affine=True)
10.0.16.14:   )
10.0.16.14:   (decoder): BartDecoder(
10.0.16.14:     (embed_tokens): Embedding(50265, 768, padding_idx=1)
10.0.16.14:     (embed_positions): BartLearnedPositionalEmbedding(1026, 768)
10.0.16.14:     (layers): ModuleList(
10.0.16.14:       (0-5): 6 x BartDecoderLayer(
10.0.16.14:         (self_attn): BartAttention(
10.0.16.14:           (k_proj): Linear(in_features=768, out_features=768, bias=True)
10.0.16.14:           (v_proj): Linear(in_features=768, out_features=768, bias=True)
10.0.16.14:           (q_proj): Linear(in_features=768, out_features=768, bias=True)
10.0.16.14:           (out_proj): Linear(in_features=768, out_features=768, bias=True)
10.0.16.14:         )
10.0.16.14:         (activation_fn): GELUActivation()
10.0.16.14:         (self_attn_layer_norm): LayerNorm((768,), eps=1e-05, elementwise_affine=True)
10.0.16.14:         (encoder_attn): BartAttention(
10.0.16.14:           (k_proj): Linear(in_features=768, out_features=768, bias=True)
10.0.16.14:           (v_proj): Linear(in_features=768, out_features=768, bias=True)
10.0.16.14:           (q_proj): Linear(in_features=768, out_features=768, bias=True)
10.0.16.14:           (out_proj): Linear(in_features=768, out_features=768, bias=True)
10.0.16.14:         )
10.0.16.14:         (encoder_attn_layer_norm): LayerNorm((768,), eps=1e-05, elementwise_affine=True)
10.0.16.14:         (fc1): Linear(in_features=768, out_features=3072, bias=True)
10.0.16.14:         (fc2): Linear(in_features=3072, out_features=768, bias=True)
10.0.16.14:         (final_layer_norm): LayerNorm((768,), eps=1e-05, elementwise_affine=True)
10.0.16.14:       )
10.0.16.14:     )
10.0.16.14:     (layernorm_embedding): LayerNorm((768,), eps=1e-05, elementwise_affine=True)
10.0.16.14:   )
10.0.16.14: )
10.0.16.14: _replace_module: Embedding(50265, 768, padding_idx=1)
10.0.16.14: _replace_module: BartEncoder(
10.0.16.14:   (embed_tokens): Embedding(50265, 768, padding_idx=1)
10.0.16.14:   (embed_positions): BartLearnedPositionalEmbedding(1026, 768)
10.0.16.14:   (layers): ModuleList(
10.0.16.14:     (0-5): 6 x BartEncoderLayer(
10.0.16.14:       (self_attn): BartAttention(
10.0.16.14:         (k_proj): Linear(in_features=768, out_features=768, bias=True)
10.0.16.14:         (v_proj): Linear(in_features=768, out_features=768, bias=True)
10.0.16.14:         (q_proj): Linear(in_features=768, out_features=768, bias=True)
10.0.16.14:         (out_proj): Linear(in_features=768, out_features=768, bias=True)
10.0.16.14:       )
10.0.16.14:       (self_attn_layer_norm): LayerNorm((768,), eps=1e-05, elementwise_affine=True)
10.0.16.14:       (activation_fn): GELUActivation()
10.0.16.14:       (fc1): Linear(in_features=768, out_features=3072, bias=True)
10.0.16.14:       (fc2): Linear(in_features=3072, out_features=768, bias=True)
10.0.16.14:       (final_layer_norm): LayerNorm((768,), eps=1e-05, elementwise_affine=True)
10.0.16.14:     )
10.0.16.14:   )
10.0.16.14:   (layernorm_embedding): LayerNorm((768,), eps=1e-05, elementwise_affine=True)
10.0.16.14: )
10.0.16.14: _replace_module: Embedding(50265, 768, padding_idx=1)
10.0.16.14: _replace_module: BartLearnedPositionalEmbedding(1026, 768)
10.0.16.14: _replace_module: ModuleList(
10.0.16.14:   (0-5): 6 x BartEncoderLayer(
10.0.16.14:     (self_attn): BartAttention(
10.0.16.14:       (k_proj): Linear(in_features=768, out_features=768, bias=True)
10.0.16.14:       (v_proj): Linear(in_features=768, out_features=768, bias=True)
10.0.16.14:       (q_proj): Linear(in_features=768, out_features=768, bias=True)
10.0.16.13: replace without policy
10.0.16.14:       (out_proj): Linear(in_features=768, out_features=768, bias=True)
10.0.16.13: all_reduce_linears: ('self_attn.out_proj', '.fc2')
10.0.16.14:     )
10.0.16.14:     (self_attn_layer_norm): LayerNorm((768,), eps=1e-05, elementwise_affine=True)
10.0.16.14:     (activation_fn): GELUActivation()
10.0.16.14:     (fc1): Linear(in_features=768, out_features=3072, bias=True)
10.0.16.14:     (fc2): Linear(in_features=3072, out_features=768, bias=True)
10.0.16.13: replace without policy
10.0.16.14:     (final_layer_norm): LayerNorm((768,), eps=1e-05, elementwise_affine=True)
10.0.16.14:   )
10.0.16.14: )
10.0.16.13: all_reduce_linears: ('.fc2', 'self_attn.out_proj')
10.0.16.14: replace without policy
10.0.16.14: all_reduce_linears: ('self_attn.out_proj', '.fc2')
10.0.16.14: num_heads: 12
10.0.16.14: embed_dim: 768
10.0.16.14: replace without policy
10.0.16.14: all_reduce_linears: ('self_attn.out_proj', '.fc2')
10.0.16.13: replace without policy
…
10.0.16.14: name: self_attn.out_proj in all_reduce_linears, weight shape: torch.Size([768, 768])
10.0.16.14: name: .fc2 in all_reduce_linears, weight shape: torch.Size([768, 3072])
10.0.16.14: _replace_module: LayerNorm((768,), eps=1e-05, elementwise_affine=True)
10.0.16.14: replace without policy
10.0.16.14: all_reduce_linears: ('self_attn.out_proj', '.fc2')
10.0.16.13: replace without policy
10.0.16.13: all_reduce_linears: ('self_attn.out_proj', '.fc2', 'encoder_attn.out_proj')
10.0.16.13: replace without policy
10.0.16.13: all_reduce_linears: ('.fc2', 'self_attn.out_proj', 'encoder_attn.out_proj')
10.0.16.14: _replace_module: BartDecoder(
10.0.16.14:   (embed_tokens): Embedding(50265, 768, padding_idx=1)
10.0.16.14:   (embed_positions): BartLearnedPositionalEmbedding(1026, 768)
10.0.16.14:   (layers): ModuleList(
10.0.16.14:     (0-5): 6 x BartDecoderLayer(
10.0.16.14:       (self_attn): BartAttention(
10.0.16.14:         (k_proj): Linear(in_features=768, out_features=768, bias=True)
10.0.16.14:         (v_proj): Linear(in_features=768, out_features=768, bias=True)
10.0.16.14:         (q_proj): Linear(in_features=768, out_features=768, bias=True)
10.0.16.14:         (out_proj): Linear(in_features=768, out_features=768, bias=True)
10.0.16.14:       )
10.0.16.14:       (activation_fn): GELUActivation()
10.0.16.14:       (self_attn_layer_norm): LayerNorm((768,), eps=1e-05, elementwise_affine=True)
10.0.16.14:       (encoder_attn): BartAttention(
10.0.16.14:         (k_proj): Linear(in_features=768, out_features=768, bias=True)
10.0.16.14:         (v_proj): Linear(in_features=768, out_features=768, bias=True)
10.0.16.14:         (q_proj): Linear(in_features=768, out_features=768, bias=True)
10.0.16.14:         (out_proj): Linear(in_features=768, out_features=768, bias=True)
10.0.16.14:       )
10.0.16.14:       (encoder_attn_layer_norm): LayerNorm((768,), eps=1e-05, elementwise_affine=True)
10.0.16.14:       (fc1): Linear(in_features=768, out_features=3072, bias=True)
10.0.16.14:       (fc2): Linear(in_features=3072, out_features=768, bias=True)
10.0.16.14:       (final_layer_norm): LayerNorm((768,), eps=1e-05, elementwise_affine=True)
10.0.16.14:     )
10.0.16.14:   )
10.0.16.14:   (layernorm_embedding): LayerNorm((768,), eps=1e-05, elementwise_affine=True)
10.0.16.14: )
10.0.16.14: _replace_module: Embedding(50265, 768, padding_idx=1)
10.0.16.14: _replace_module: BartLearnedPositionalEmbedding(1026, 768)
10.0.16.14: _replace_module: ModuleList(
10.0.16.14:   (0-5): 6 x BartDecoderLayer(
10.0.16.14:     (self_attn): BartAttention(
10.0.16.14:       (k_proj): Linear(in_features=768, out_features=768, bias=True)
10.0.16.14:       (v_proj): Linear(in_features=768, out_features=768, bias=True)
10.0.16.14:       (q_proj): Linear(in_features=768, out_features=768, bias=True)
10.0.16.14:       (out_proj): Linear(in_features=768, out_features=768, bias=True)
10.0.16.14:     )
10.0.16.14:     (activation_fn): GELUActivation()
10.0.16.14:     (self_attn_layer_norm): LayerNorm((768,), eps=1e-05, elementwise_affine=True)
10.0.16.14:     (encoder_attn): BartAttention(
10.0.16.14:       (k_proj): Linear(in_features=768, out_features=768, bias=True)
10.0.16.14:       (v_proj): Linear(in_features=768, out_features=768, bias=True)
10.0.16.14:       (q_proj): Linear(in_features=768, out_features=768, bias=True)
10.0.16.14:       (out_proj): Linear(in_features=768, out_features=768, bias=True)
10.0.16.14:     )
10.0.16.14:     (encoder_attn_layer_norm): LayerNorm((768,), eps=1e-05, elementwise_affine=True)
10.0.16.14:     (fc1): Linear(in_features=768, out_features=3072, bias=True)
10.0.16.14:     (fc2): Linear(in_features=3072, out_features=768, bias=True)
10.0.16.14:     (final_layer_norm): LayerNorm((768,), eps=1e-05, elementwise_affine=True)
10.0.16.14:   )
10.0.16.14: )
10.0.16.14: _replace_module: BartDecoderLayer(
10.0.16.14:   (self_attn): BartAttention(
10.0.16.14:     (k_proj): Linear(in_features=768, out_features=768, bias=True)
10.0.16.14:     (v_proj): Linear(in_features=768, out_features=768, bias=True)
10.0.16.14:     (q_proj): Linear(in_features=768, out_features=768, bias=True)
10.0.16.14:     (out_proj): Linear(in_features=768, out_features=768, bias=True)
10.0.16.14:   )
10.0.16.14:   (activation_fn): GELUActivation()
10.0.16.14:   (self_attn_layer_norm): LayerNorm((768,), eps=1e-05, elementwise_affine=True)
10.0.16.14:   (encoder_attn): BartAttention(
10.0.16.14:     (k_proj): Linear(in_features=768, out_features=768, bias=True)
10.0.16.14:     (v_proj): Linear(in_features=768, out_features=768, bias=True)
10.0.16.14:     (q_proj): Linear(in_features=768, out_features=768, bias=True)
10.0.16.14:     (out_proj): Linear(in_features=768, out_features=768, bias=True)
10.0.16.14:   )
10.0.16.14:   (encoder_attn_layer_norm): LayerNorm((768,), eps=1e-05, elementwise_affine=True)
10.0.16.14:   (fc1): Linear(in_features=768, out_features=3072, bias=True)
10.0.16.14:   (fc2): Linear(in_features=3072, out_features=768, bias=True)
10.0.16.14:   (final_layer_norm): LayerNorm((768,), eps=1e-05, elementwise_affine=True)
10.0.16.14: )
10.0.16.14: _replace_module: BartAttention(
10.0.16.14:   (k_proj): Linear(in_features=768, out_features=768, bias=True)
10.0.16.14:   (v_proj): Linear(in_features=768, out_features=768, bias=True)
10.0.16.14:   (q_proj): Linear(in_features=768, out_features=768, bias=True)
10.0.16.14:   (out_proj): Linear(in_features=768, out_features=768, bias=True)
10.0.16.14: )
10.0.16.14: _replace_module: Linear(in_features=768, out_features=768, bias=True)
10.0.16.14: _replace_module: Linear(in_features=768, out_features=768, bias=True)
10.0.16.14: _replace_module: Linear(in_features=768, out_features=768, bias=True)
10.0.16.14: _replace_module: Linear(in_features=768, out_features=768, bias=True)
10.0.16.14: _replace_module: GELUActivation()
10.0.16.14: _replace_module: LayerNorm((768,), eps=1e-05, elementwise_affine=True)
10.0.16.14: _replace_module: BartAttention(
10.0.16.14:   (k_proj): Linear(in_features=768, out_features=768, bias=True)
10.0.16.14:   (v_proj): Linear(in_features=768, out_features=768, bias=True)
10.0.16.14:   (q_proj): Linear(in_features=768, out_features=768, bias=True)
10.0.16.14:   (out_proj): Linear(in_features=768, out_features=768, bias=True)
10.0.16.14: )
10.0.16.14: _replace_module: Linear(in_features=768, out_features=768, bias=True)
10.0.16.14: _replace_module: Linear(in_features=768, out_features=768, bias=True)
10.0.16.14: _replace_module: Linear(in_features=768, out_features=768, bias=True)
10.0.16.14: _replace_module: Linear(in_features=768, out_features=768, bias=True)
10.0.16.14: _replace_module: LayerNorm((768,), eps=1e-05, elementwise_affine=True)
10.0.16.14: _replace_module: Linear(in_features=768, out_features=3072, bias=True)
10.0.16.14: _replace_module: Linear(in_features=3072, out_features=768, bias=True)
10.0.16.14: _replace_module: LayerNorm((768,), eps=1e-05, elementwise_affine=True)
10.0.16.14: _replace_module: BartDecoderLayer(
10.0.16.14:   (self_attn): BartAttention(
10.0.16.14:     (k_proj): Linear(in_features=768, out_features=768, bias=True)
10.0.16.14:     (v_proj): Linear(in_features=768, out_features=768, bias=True)
10.0.16.14:     (q_proj): Linear(in_features=768, out_features=768, bias=True)
10.0.16.14:     (out_proj): Linear(in_features=768, out_features=768, bias=True)
10.0.16.14:   )
10.0.16.14:   (activation_fn): GELUActivation()
10.0.16.14:   (self_attn_layer_norm): LayerNorm((768,), eps=1e-05, elementwise_affine=True)
10.0.16.14:   (encoder_attn): BartAttention(
10.0.16.14:     (k_proj): Linear(in_features=768, out_features=768, bias=True)
10.0.16.14:     (v_proj): Linear(in_features=768, out_features=768, bias=True)
10.0.16.14:     (q_proj): Linear(in_features=768, out_features=768, bias=True)
10.0.16.14:     (out_proj): Linear(in_features=768, out_features=768, bias=True)
10.0.16.14:   )
10.0.16.14:   (encoder_attn_layer_norm): LayerNorm((768,), eps=1e-05, elementwise_affine=True)
10.0.16.14:   (fc1): Linear(in_features=768, out_features=3072, bias=True)
10.0.16.14:   (fc2): Linear(in_features=3072, out_features=768, bias=True)
10.0.16.14:   (final_layer_norm): LayerNorm((768,), eps=1e-05, elementwise_affine=True)
10.0.16.14: )
10.0.16.14: _replace_module: BartAttention(
10.0.16.14:   (k_proj): Linear(in_features=768, out_features=768, bias=True)
10.0.16.13: replace without policy
10.0.16.14:   (v_proj): Linear(in_features=768, out_features=768, bias=True)
10.0.16.14:   (q_proj): Linear(in_features=768, out_features=768, bias=True)
10.0.16.14:   (out_proj): Linear(in_features=768, out_features=768, bias=True)
10.0.16.14: )
10.0.16.13: all_reduce_linears: ('self_attn.out_proj', '.fc2', 'encoder_attn.out_proj')
10.0.16.14: _replace_module: Linear(in_features=768, out_features=768, bias=True)
10.0.16.14: _replace_module: Linear(in_features=768, out_features=768, bias=True)
10.0.16.13: replace without policy
10.0.16.14: _replace_module: Linear(in_features=768, out_features=768, bias=True)
10.0.16.13: all_reduce_linears: ('.fc2', 'self_attn.out_proj', 'encoder_attn.out_proj')
10.0.16.14: _replace_module: Linear(in_features=768, out_features=768, bias=True)
10.0.16.14: _replace_module: GELUActivation()
10.0.16.14: _replace_module: LayerNorm((768,), eps=1e-05, elementwise_affine=True)
10.0.16.14: _replace_module: BartAttention(
10.0.16.14:   (k_proj): Linear(in_features=768, out_features=768, bias=True)
10.0.16.14:   (v_proj): Linear(in_features=768, out_features=768, bias=True)
10.0.16.14:   (q_proj): Linear(in_features=768, out_features=768, bias=True)
10.0.16.14:   (out_proj): Linear(in_features=768, out_features=768, bias=True)
10.0.16.14: )
10.0.16.14: _replace_module: Linear(in_features=768, out_features=768, bias=True)
10.0.16.14: _replace_module: Linear(in_features=768, out_features=768, bias=True)
10.0.16.14: _replace_module: Linear(in_features=768, out_features=768, bias=True)
10.0.16.14: _replace_module: Linear(in_features=768, out_features=768, bias=True)
10.0.16.14: _replace_module: LayerNorm((768,), eps=1e-05, elementwise_affine=True)
10.0.16.14: _replace_module: Linear(in_features=768, out_features=3072, bias=True)
10.0.16.14: _replace_module: Linear(in_features=3072, out_features=768, bias=True)
10.0.16.14: _replace_module: LayerNorm((768,), eps=1e-05, elementwise_affine=True)
10.0.16.14: _replace_module: BartDecoderLayer(
10.0.16.14:   (self_attn): BartAttention(
10.0.16.14:     (k_proj): Linear(in_features=768, out_features=768, bias=True)
10.0.16.14:     (v_proj): Linear(in_features=768, out_features=768, bias=True)
10.0.16.14:     (q_proj): Linear(in_features=768, out_features=768, bias=True)
10.0.16.14:     (out_proj): Linear(in_features=768, out_features=768, bias=True)
10.0.16.14:   )
10.0.16.14:   (activation_fn): GELUActivation()
10.0.16.14:   (self_attn_layer_norm): LayerNorm((768,), eps=1e-05, elementwise_affine=True)
10.0.16.14:   (encoder_attn): BartAttention(
10.0.16.14:     (k_proj): Linear(in_features=768, out_features=768, bias=True)
10.0.16.14:     (v_proj): Linear(in_features=768, out_features=768, bias=True)
10.0.16.14:     (q_proj): Linear(in_features=768, out_features=768, bias=True)
10.0.16.14:     (out_proj): Linear(in_features=768, out_features=768, bias=True)
10.0.16.14:   )
10.0.16.14:   (encoder_attn_layer_norm): LayerNorm((768,), eps=1e-05, elementwise_affine=True)
10.0.16.14:   (fc1): Linear(in_features=768, out_features=3072, bias=True)
10.0.16.14:   (fc2): Linear(in_features=3072, out_features=768, bias=True)
10.0.16.14:   (final_layer_norm): LayerNorm((768,), eps=1e-05, elementwise_affine=True)
10.0.16.14: )
10.0.16.14: replace without policy
10.0.16.14: all_reduce_linears: ('self_attn.out_proj', '.fc2')
10.0.16.14: _replace_module: BartAttention(
10.0.16.14:   (k_proj): Linear(in_features=768, out_features=768, bias=True)
10.0.16.14:   (v_proj): Linear(in_features=768, out_features=768, bias=True)
10.0.16.14:   (q_proj): Linear(in_features=768, out_features=768, bias=True)
10.0.16.14:   (out_proj): Linear(in_features=768, out_features=768, bias=True)
10.0.16.14: )
10.0.16.14: _replace_module: Linear(in_features=768, out_features=768, bias=True)
10.0.16.14: _replace_module: Linear(in_features=768, out_features=768, bias=True)
10.0.16.14: _replace_module: Linear(in_features=768, out_features=768, bias=True)
10.0.16.14: _replace_module: Linear(in_features=768, out_features=768, bias=True)
10.0.16.14: _replace_module: GELUActivation()
10.0.16.14: _replace_module: LayerNorm((768,), eps=1e-05, elementwise_affine=True)
10.0.16.14: _replace_module: BartAttention(
10.0.16.14:   (k_proj): Linear(in_features=768, out_features=768, bias=True)
10.0.16.14:   (v_proj): Linear(in_features=768, out_features=768, bias=True)
10.0.16.14:   (q_proj): Linear(in_features=768, out_features=768, bias=True)
10.0.16.14:   (out_proj): Linear(in_features=768, out_features=768, bias=True)
10.0.16.14: )
10.0.16.14: _replace_module: Linear(in_features=768, out_features=768, bias=True)
10.0.16.14: _replace_module: Linear(in_features=768, out_features=768, bias=True)
10.0.16.14: _replace_module: Linear(in_features=768, out_features=768, bias=True)
10.0.16.14: _replace_module: Linear(in_features=768, out_features=768, bias=True)
10.0.16.14: _replace_module: LayerNorm((768,), eps=1e-05, elementwise_affine=True)
10.0.16.14: _replace_module: Linear(in_features=768, out_features=3072, bias=True)
10.0.16.14: _replace_module: Linear(in_features=3072, out_features=768, bias=True)
10.0.16.14: _replace_module: LayerNorm((768,), eps=1e-05, elementwise_affine=True)
10.0.16.14: _replace_module: BartDecoderLayer(
10.0.16.14:   (self_attn): BartAttention(
10.0.16.14:     (k_proj): Linear(in_features=768, out_features=768, bias=True)
10.0.16.14:     (v_proj): Linear(in_features=768, out_features=768, bias=True)
10.0.16.14:     (q_proj): Linear(in_features=768, out_features=768, bias=True)
10.0.16.14:     (out_proj): Linear(in_features=768, out_features=768, bias=True)
10.0.16.14:   )
10.0.16.14:   (activation_fn): GELUActivation()
10.0.16.14:   (self_attn_layer_norm): LayerNorm((768,), eps=1e-05, elementwise_affine=True)
10.0.16.14:   (encoder_attn): BartAttention(
10.0.16.14:     (k_proj): Linear(in_features=768, out_features=768, bias=True)
10.0.16.14:     (v_proj): Linear(in_features=768, out_features=768, bias=True)
10.0.16.14:     (q_proj): Linear(in_features=768, out_features=768, bias=True)
10.0.16.14:     (out_proj): Linear(in_features=768, out_features=768, bias=True)
10.0.16.14:   )
10.0.16.14:   (encoder_attn_layer_norm): LayerNorm((768,), eps=1e-05, elementwise_affine=True)
10.0.16.14:   (fc1): Linear(in_features=768, out_features=3072, bias=True)
10.0.16.14:   (fc2): Linear(in_features=3072, out_features=768, bias=True)
10.0.16.14:   (final_layer_norm): LayerNorm((768,), eps=1e-05, elementwise_affine=True)
10.0.16.14: )
10.0.16.14: _replace_module: BartAttention(
10.0.16.14:   (k_proj): Linear(in_features=768, out_features=768, bias=True)
10.0.16.14:   (v_proj): Linear(in_features=768, out_features=768, bias=True)
10.0.16.14:   (q_proj): Linear(in_features=768, out_features=768, bias=True)
10.0.16.14:   (out_proj): Linear(in_features=768, out_features=768, bias=True)
10.0.16.14: )
10.0.16.14: _replace_module: Linear(in_features=768, out_features=768, bias=True)
10.0.16.14: _replace_module: Linear(in_features=768, out_features=768, bias=True)
10.0.16.14: _replace_module: Linear(in_features=768, out_features=768, bias=True)
10.0.16.14: _replace_module: Linear(in_features=768, out_features=768, bias=True)
10.0.16.14: _replace_module: GELUActivation()
10.0.16.14: _replace_module: LayerNorm((768,), eps=1e-05, elementwise_affine=True)
10.0.16.14: _replace_module: BartAttention(
10.0.16.14:   (k_proj): Linear(in_features=768, out_features=768, bias=True)
10.0.16.13: replace without policy
10.0.16.14:   (v_proj): Linear(in_features=768, out_features=768, bias=True)
10.0.16.14:   (q_proj): Linear(in_features=768, out_features=768, bias=True)
10.0.16.13: all_reduce_linears: ('.fc2', 'self_attn.out_proj', 'encoder_attn.out_proj')
10.0.16.14:   (out_proj): Linear(in_features=768, out_features=768, bias=True)
10.0.16.14: )
10.0.16.14: _replace_module: Linear(in_features=768, out_features=768, bias=True)
10.0.16.14: _replace_module: Linear(in_features=768, out_features=768, bias=True)
10.0.16.14: _replace_module: Linear(in_features=768, out_features=768, bias=True)
10.0.16.14: _replace_module: Linear(in_features=768, out_features=768, bias=True)
10.0.16.14: _replace_module: LayerNorm((768,), eps=1e-05, elementwise_affine=True)
10.0.16.14: _replace_module: Linear(in_features=768, out_features=3072, bias=True)
10.0.16.14: _replace_module: Linear(in_features=3072, out_features=768, bias=True)
10.0.16.14: _replace_module: LayerNorm((768,), eps=1e-05, elementwise_affine=True)
10.0.16.14: _replace_module: BartDecoderLayer(
10.0.16.14:   (self_attn): BartAttention(
10.0.16.14:     (k_proj): Linear(in_features=768, out_features=768, bias=True)
10.0.16.14:     (v_proj): Linear(in_features=768, out_features=768, bias=True)
10.0.16.14:     (q_proj): Linear(in_features=768, out_features=768, bias=True)
10.0.16.14:     (out_proj): Linear(in_features=768, out_features=768, bias=True)
10.0.16.14:   )
10.0.16.14:   (activation_fn): GELUActivation()
10.0.16.14:   (self_attn_layer_norm): LayerNorm((768,), eps=1e-05, elementwise_affine=True)
10.0.16.14:   (encoder_attn): BartAttention(
10.0.16.14:     (k_proj): Linear(in_features=768, out_features=768, bias=True)
10.0.16.14:     (v_proj): Linear(in_features=768, out_features=768, bias=True)
10.0.16.14:     (q_proj): Linear(in_features=768, out_features=768, bias=True)
10.0.16.14:     (out_proj): Linear(in_features=768, out_features=768, bias=True)
10.0.16.14:   )
10.0.16.14:   (encoder_attn_layer_norm): LayerNorm((768,), eps=1e-05, elementwise_affine=True)
10.0.16.14:   (fc1): Linear(in_features=768, out_features=3072, bias=True)
10.0.16.14:   (fc2): Linear(in_features=3072, out_features=768, bias=True)
10.0.16.14:   (final_layer_norm): LayerNorm((768,), eps=1e-05, elementwise_affine=True)
10.0.16.14: )
10.0.16.14: _replace_module: BartAttention(
10.0.16.14:   (k_proj): Linear(in_features=768, out_features=768, bias=True)
10.0.16.14:   (v_proj): Linear(in_features=768, out_features=768, bias=True)
10.0.16.14:   (q_proj): Linear(in_features=768, out_features=768, bias=True)
10.0.16.14:   (out_proj): Linear(in_features=768, out_features=768, bias=True)
10.0.16.14: )
10.0.16.14: _replace_module: Linear(in_features=768, out_features=768, bias=True)
10.0.16.14: _replace_module: Linear(in_features=768, out_features=768, bias=True)
10.0.16.14: _replace_module: Linear(in_features=768, out_features=768, bias=True)
10.0.16.14: _replace_module: Linear(in_features=768, out_features=768, bias=True)
10.0.16.14: _replace_module: GELUActivation()
10.0.16.14: _replace_module: LayerNorm((768,), eps=1e-05, elementwise_affine=True)
10.0.16.14: _replace_module: BartAttention(
10.0.16.14:   (k_proj): Linear(in_features=768, out_features=768, bias=True)
10.0.16.14:   (v_proj): Linear(in_features=768, out_features=768, bias=True)
10.0.16.14:   (q_proj): Linear(in_features=768, out_features=768, bias=True)
10.0.16.14:   (out_proj): Linear(in_features=768, out_features=768, bias=True)
10.0.16.14: )
10.0.16.14: _replace_module: Linear(in_features=768, out_features=768, bias=True)
10.0.16.14: _replace_module: Linear(in_features=768, out_features=768, bias=True)
10.0.16.14: _replace_module: Linear(in_features=768, out_features=768, bias=True)
10.0.16.14: _replace_module: Linear(in_features=768, out_features=768, bias=True)
10.0.16.14: _replace_module: LayerNorm((768,), eps=1e-05, elementwise_affine=True)
10.0.16.14: _replace_module: Linear(in_features=768, out_features=3072, bias=True)
10.0.16.14: _replace_module: Linear(in_features=3072, out_features=768, bias=True)
10.0.16.14: _replace_module: LayerNorm((768,), eps=1e-05, elementwise_affine=True)
10.0.16.14: _replace_module: BartDecoderLayer(
10.0.16.14:   (self_attn): BartAttention(
10.0.16.14:     (k_proj): Linear(in_features=768, out_features=768, bias=True)
10.0.16.14:     (v_proj): Linear(in_features=768, out_features=768, bias=True)
10.0.16.14:     (q_proj): Linear(in_features=768, out_features=768, bias=True)
10.0.16.14:     (out_proj): Linear(in_features=768, out_features=768, bias=True)
10.0.16.14:   )
10.0.16.14:   (activation_fn): GELUActivation()
10.0.16.14:   (self_attn_layer_norm): LayerNorm((768,), eps=1e-05, elementwise_affine=True)
10.0.16.14:   (encoder_attn): BartAttention(
10.0.16.14:     (k_proj): Linear(in_features=768, out_features=768, bias=True)
10.0.16.14:     (v_proj): Linear(in_features=768, out_features=768, bias=True)
10.0.16.14:     (q_proj): Linear(in_features=768, out_features=768, bias=True)
10.0.16.14:     (out_proj): Linear(in_features=768, out_features=768, bias=True)
10.0.16.14:   )
10.0.16.14:   (encoder_attn_layer_norm): LayerNorm((768,), eps=1e-05, elementwise_affine=True)
10.0.16.14:   (fc1): Linear(in_features=768, out_features=3072, bias=True)
10.0.16.14:   (fc2): Linear(in_features=3072, out_features=768, bias=True)
10.0.16.14:   (final_layer_norm): LayerNorm((768,), eps=1e-05, elementwise_affine=True)
10.0.16.14: )
10.0.16.14: _replace_module: BartAttention(
10.0.16.14:   (k_proj): Linear(in_features=768, out_features=768, bias=True)
10.0.16.14:   (v_proj): Linear(in_features=768, out_features=768, bias=True)
10.0.16.14:   (q_proj): Linear(in_features=768, out_features=768, bias=True)
10.0.16.14:   (out_proj): Linear(in_features=768, out_features=768, bias=True)
10.0.16.14: )
10.0.16.14: _replace_module: Linear(in_features=768, out_features=768, bias=True)
10.0.16.14: _replace_module: Linear(in_features=768, out_features=768, bias=True)
10.0.16.14: _replace_module: Linear(in_features=768, out_features=768, bias=True)
10.0.16.14: _replace_module: Linear(in_features=768, out_features=768, bias=True)
10.0.16.14: _replace_module: GELUActivation()
10.0.16.14: _replace_module: LayerNorm((768,), eps=1e-05, elementwise_affine=True)
10.0.16.14: _replace_module: BartAttention(
10.0.16.14:   (k_proj): Linear(in_features=768, out_features=768, bias=True)
10.0.16.14:   (v_proj): Linear(in_features=768, out_features=768, bias=True)
10.0.16.14:   (q_proj): Linear(in_features=768, out_features=768, bias=True)
10.0.16.14:   (out_proj): Linear(in_features=768, out_features=768, bias=True)
10.0.16.14: )
10.0.16.14: _replace_module: Linear(in_features=768, out_features=768, bias=True)
10.0.16.14: _replace_module: Linear(in_features=768, out_features=768, bias=True)
10.0.16.14: _replace_module: Linear(in_features=768, out_features=768, bias=True)
10.0.16.14: _replace_module: Linear(in_features=768, out_features=768, bias=True)
10.0.16.14: _replace_module: LayerNorm((768,), eps=1e-05, elementwise_affine=True)
10.0.16.14: _replace_module: Linear(in_features=768, out_features=3072, bias=True)
10.0.16.14: _replace_module: Linear(in_features=3072, out_features=768, bias=True)
10.0.16.14: _replace_module: LayerNorm((768,), eps=1e-05, elementwise_affine=True)
10.0.16.14: _replace_module: LayerNorm((768,), eps=1e-05, elementwise_affine=True)
10.0.16.14: _replace_module: Linear(in_features=768, out_features=50265, bias=False)
10.0.16.14: _replace_module: BartForConditionalGeneration(
10.0.16.14:   (model): BartModel(
10.0.16.14:     (shared): Embedding(50265, 768, padding_idx=1)
10.0.16.14:     (encoder): BartEncoder(
10.0.16.14:       (embed_tokens): Embedding(50265, 768, padding_idx=1)
10.0.16.14:       (embed_positions): BartLearnedPositionalEmbedding(1026, 768)
10.0.16.14:       (layers): ModuleList(
10.0.16.14:         (0-5): 6 x BartEncoderLayer(
10.0.16.14:           (self_attn): BartAttention(
10.0.16.14:             (k_proj): LinearLayer()
10.0.16.14:             (v_proj): LinearLayer()
10.0.16.14:             (q_proj): LinearLayer()
10.0.16.14:             (out_proj): LinearAllreduce()
10.0.16.14:           )
10.0.16.14:           (self_attn_layer_norm): LayerNorm((768,), eps=1e-05, elementwise_affine=True)
10.0.16.14:           (activation_fn): GELUActivation()
10.0.16.14:           (fc1): LinearLayer()
10.0.16.14:           (fc2): LinearAllreduce()
10.0.16.14:           (final_layer_norm): LayerNorm((768,), eps=1e-05, elementwise_affine=True)
10.0.16.14:         )
10.0.16.14:       )
10.0.16.14:       (layernorm_embedding): LayerNorm((768,), eps=1e-05, elementwise_affine=True)
10.0.16.14:     )
10.0.16.14:     (decoder): BartDecoder(
10.0.16.13: replace without policy
10.0.16.14:       (embed_tokens): Embedding(50265, 768, padding_idx=1)
10.0.16.13: all_reduce_linears: ('.fc2', 'self_attn.out_proj', 'encoder_attn.out_proj')
10.0.16.14:       (embed_positions): BartLearnedPositionalEmbedding(1026, 768)
10.0.16.14:       (layers): ModuleList(
10.0.16.14:         (0-5): 6 x BartDecoderLayer(
10.0.16.14:           (self_attn): BartAttention(
10.0.16.14:             (k_proj): Linear(in_features=768, out_features=768, bias=True)
10.0.16.14:             (v_proj): Linear(in_features=768, out_features=768, bias=True)
10.0.16.14:             (q_proj): Linear(in_features=768, out_features=768, bias=True)
10.0.16.14:             (out_proj): Linear(in_features=768, out_features=768, bias=True)
10.0.16.14:           )
10.0.16.14:           (activation_fn): GELUActivation()
10.0.16.14:           (self_attn_layer_norm): LayerNorm((768,), eps=1e-05, elementwise_affine=True)
10.0.16.14:           (encoder_attn): BartAttention(
10.0.16.14:             (k_proj): Linear(in_features=768, out_features=768, bias=True)
10.0.16.14:             (v_proj): Linear(in_features=768, out_features=768, bias=True)
10.0.16.14:             (q_proj): Linear(in_features=768, out_features=768, bias=True)
10.0.16.14:             (out_proj): Linear(in_features=768, out_features=768, bias=True)
10.0.16.14:           )
10.0.16.14:           (encoder_attn_layer_norm): LayerNorm((768,), eps=1e-05, elementwise_affine=True)
10.0.16.14:           (fc1): Linear(in_features=768, out_features=3072, bias=True)
10.0.16.14:           (fc2): Linear(in_features=3072, out_features=768, bias=True)
10.0.16.14:           (final_layer_norm): LayerNorm((768,), eps=1e-05, elementwise_affine=True)
10.0.16.14:         )
10.0.16.14:       )
10.0.16.14:       (layernorm_embedding): LayerNorm((768,), eps=1e-05, elementwise_affine=True)
10.0.16.14:     )
10.0.16.14:   )
10.0.16.14:   (lm_head): Linear(in_features=768, out_features=50265, bias=False)
10.0.16.14: )
10.0.16.14: _replace_module: BartModel(
10.0.16.14:   (shared): Embedding(50265, 768, padding_idx=1)
10.0.16.14:   (encoder): BartEncoder(
10.0.16.14:     (embed_tokens): Embedding(50265, 768, padding_idx=1)
10.0.16.14:     (embed_positions): BartLearnedPositionalEmbedding(1026, 768)
10.0.16.14:     (layers): ModuleList(
10.0.16.14:       (0-5): 6 x BartEncoderLayer(
10.0.16.14:         (self_attn): BartAttention(
10.0.16.14:           (k_proj): LinearLayer()
10.0.16.14:           (v_proj): LinearLayer()
10.0.16.14:           (q_proj): LinearLayer()
10.0.16.14:           (out_proj): LinearAllreduce()
10.0.16.14:         )
10.0.16.14:         (self_attn_layer_norm): LayerNorm((768,), eps=1e-05, elementwise_affine=True)
10.0.16.14:         (activation_fn): GELUActivation()
10.0.16.14:         (fc1): LinearLayer()
10.0.16.14:         (fc2): LinearAllreduce()
10.0.16.14:         (final_layer_norm): LayerNorm((768,), eps=1e-05, elementwise_affine=True)
10.0.16.14:       )
10.0.16.14:     )
10.0.16.14:     (layernorm_embedding): LayerNorm((768,), eps=1e-05, elementwise_affine=True)
10.0.16.14:   )
10.0.16.14:   (decoder): BartDecoder(
10.0.16.14:     (embed_tokens): Embedding(50265, 768, padding_idx=1)
10.0.16.14:     (embed_positions): BartLearnedPositionalEmbedding(1026, 768)
10.0.16.14:     (layers): ModuleList(
10.0.16.14:       (0-5): 6 x BartDecoderLayer(
10.0.16.14:         (self_attn): BartAttention(
10.0.16.14:           (k_proj): Linear(in_features=768, out_features=768, bias=True)
10.0.16.14:           (v_proj): Linear(in_features=768, out_features=768, bias=True)
10.0.16.14:           (q_proj): Linear(in_features=768, out_features=768, bias=True)
10.0.16.14:           (out_proj): Linear(in_features=768, out_features=768, bias=True)
10.0.16.14:         )
10.0.16.14:         (activation_fn): GELUActivation()
10.0.16.14:         (self_attn_layer_norm): LayerNorm((768,), eps=1e-05, elementwise_affine=True)
10.0.16.14:         (encoder_attn): BartAttention(
10.0.16.14:           (k_proj): Linear(in_features=768, out_features=768, bias=True)
10.0.16.14:           (v_proj): Linear(in_features=768, out_features=768, bias=True)
10.0.16.14:           (q_proj): Linear(in_features=768, out_features=768, bias=True)
10.0.16.14:           (out_proj): Linear(in_features=768, out_features=768, bias=True)
10.0.16.14:         )
10.0.16.14:         (encoder_attn_layer_norm): LayerNorm((768,), eps=1e-05, elementwise_affine=True)
10.0.16.14:         (fc1): Linear(in_features=768, out_features=3072, bias=True)
10.0.16.14:         (fc2): Linear(in_features=3072, out_features=768, bias=True)
10.0.16.14:         (final_layer_norm): LayerNorm((768,), eps=1e-05, elementwise_affine=True)
10.0.16.14:       )
10.0.16.14:     )
10.0.16.14:     (layernorm_embedding): LayerNorm((768,), eps=1e-05, elementwise_affine=True)
10.0.16.14:   )
10.0.16.14: )
10.0.16.14: _replace_module: Embedding(50265, 768, padding_idx=1)
10.0.16.14: _replace_module: BartEncoder(
10.0.16.14:   (embed_tokens): Embedding(50265, 768, padding_idx=1)
10.0.16.14:   (embed_positions): BartLearnedPositionalEmbedding(1026, 768)
10.0.16.14:   (layers): ModuleList(
10.0.16.14:     (0-5): 6 x BartEncoderLayer(
10.0.16.14:       (self_attn): BartAttention(
10.0.16.14:         (k_proj): LinearLayer()
10.0.16.14:         (v_proj): LinearLayer()
10.0.16.14:         (q_proj): LinearLayer()
10.0.16.14:         (out_proj): LinearAllreduce()
10.0.16.14:       )
10.0.16.14:       (self_attn_layer_norm): LayerNorm((768,), eps=1e-05, elementwise_affine=True)
10.0.16.14:       (activation_fn): GELUActivation()
10.0.16.14:       (fc1): LinearLayer()
10.0.16.14:       (fc2): LinearAllreduce()
10.0.16.14:       (final_layer_norm): LayerNorm((768,), eps=1e-05, elementwise_affine=True)
10.0.16.14:     )
10.0.16.14:   )
10.0.16.14:   (layernorm_embedding): LayerNorm((768,), eps=1e-05, elementwise_affine=True)
10.0.16.14: )
10.0.16.14: _replace_module: Embedding(50265, 768, padding_idx=1)
10.0.16.14: _replace_module: BartLearnedPositionalEmbedding(1026, 768)
10.0.16.14: _replace_module: ModuleList(
10.0.16.14:   (0-5): 6 x BartEncoderLayer(
10.0.16.14:     (self_attn): BartAttention(
10.0.16.14:       (k_proj): LinearLayer()
10.0.16.14:       (v_proj): LinearLayer()
10.0.16.14:       (q_proj): LinearLayer()
10.0.16.14:       (out_proj): LinearAllreduce()
10.0.16.14:     )
10.0.16.14:     (self_attn_layer_norm): LayerNorm((768,), eps=1e-05, elementwise_affine=True)
10.0.16.14:     (activation_fn): GELUActivation()
10.0.16.14:     (fc1): LinearLayer()
10.0.16.14:     (fc2): LinearAllreduce()
10.0.16.14:     (final_layer_norm): LayerNorm((768,), eps=1e-05, elementwise_affine=True)
10.0.16.14:   )
10.0.16.14: )
10.0.16.14: _replace_module: BartEncoderLayer(
10.0.16.14:   (self_attn): BartAttention(
10.0.16.14:     (k_proj): LinearLayer()
10.0.16.14:     (v_proj): LinearLayer()
10.0.16.14:     (q_proj): LinearLayer()
10.0.16.14:     (out_proj): LinearAllreduce()
10.0.16.14:   )
10.0.16.14:   (self_attn_layer_norm): LayerNorm((768,), eps=1e-05, elementwise_affine=True)
10.0.16.13: replace without policy
10.0.16.14:   (activation_fn): GELUActivation()
10.0.16.14:   (fc1): LinearLayer()
10.0.16.14:   (fc2): LinearAllreduce()
10.0.16.14:   (final_layer_norm): LayerNorm((768,), eps=1e-05, elementwise_affine=True)
10.0.16.13: all_reduce_linears: ('.fc2', 'self_attn.out_proj', 'encoder_attn.out_proj')
10.0.16.14: )
10.0.16.14: _replace_module: BartAttention(
10.0.16.14:   (k_proj): LinearLayer()
10.0.16.14:   (v_proj): LinearLayer()
10.0.16.14:   (q_proj): LinearLayer()
10.0.16.14:   (out_proj): LinearAllreduce()
10.0.16.14: )
10.0.16.14: _replace_module: LinearLayer()
…
10.0.16.14: _replace_module: LinearAllreduce()
10.0.16.14: _replace_module: LayerNorm((768,), eps=1e-05, elementwise_affine=True)
10.0.16.14: _replace_module: GELUActivation()
10.0.16.14: _replace_module: LinearLayer()
10.0.16.14: _replace_module: LinearAllreduce()
10.0.16.14: _replace_module: LayerNorm((768,), eps=1e-05, elementwise_affine=True)
10.0.16.14: replace without policy
10.0.16.14: all_reduce_linears: ('encoder_attn.out_proj', 'self_attn.out_proj', '.fc2')
10.0.16.14: _replace_module: LayerNorm((768,), eps=1e-05, elementwise_affine=True)
10.0.16.14: _replace_module: BartDecoder(
10.0.16.14:   (embed_tokens): Embedding(50265, 768, padding_idx=1)
10.0.16.14:   (embed_positions): BartLearnedPositionalEmbedding(1026, 768)
10.0.16.14:   (layers): ModuleList(
10.0.16.14:     (0-5): 6 x BartDecoderLayer(
10.0.16.14:       (self_attn): BartAttention(
10.0.16.14:         (k_proj): Linear(in_features=768, out_features=768, bias=True)
10.0.16.14:         (v_proj): Linear(in_features=768, out_features=768, bias=True)
10.0.16.14:         (q_proj): Linear(in_features=768, out_features=768, bias=True)
10.0.16.14:         (out_proj): Linear(in_features=768, out_features=768, bias=True)
10.0.16.14:       )
10.0.16.14:       (activation_fn): GELUActivation()
10.0.16.14:       (self_attn_layer_norm): LayerNorm((768,), eps=1e-05, elementwise_affine=True)
10.0.16.14:       (encoder_attn): BartAttention(
10.0.16.14:         (k_proj): Linear(in_features=768, out_features=768, bias=True)
10.0.16.14:         (v_proj): Linear(in_features=768, out_features=768, bias=True)
10.0.16.14:         (q_proj): Linear(in_features=768, out_features=768, bias=True)
10.0.16.14:         (out_proj): Linear(in_features=768, out_features=768, bias=True)
10.0.16.14:       )
10.0.16.14:       (encoder_attn_layer_norm): LayerNorm((768,), eps=1e-05, elementwise_affine=True)
10.0.16.14:       (fc1): Linear(in_features=768, out_features=3072, bias=True)
10.0.16.14:       (fc2): Linear(in_features=3072, out_features=768, bias=True)
10.0.16.14:       (final_layer_norm): LayerNorm((768,), eps=1e-05, elementwise_affine=True)
10.0.16.14:     )
10.0.16.14:   )
10.0.16.14:   (layernorm_embedding): LayerNorm((768,), eps=1e-05, elementwise_affine=True)
10.0.16.14: )
10.0.16.14: _replace_module: Embedding(50265, 768, padding_idx=1)
10.0.16.14: _replace_module: BartLearnedPositionalEmbedding(1026, 768)
10.0.16.14: _replace_module: ModuleList(
10.0.16.14:   (0-5): 6 x BartDecoderLayer(
10.0.16.14:     (self_attn): BartAttention(
10.0.16.14:       (k_proj): Linear(in_features=768, out_features=768, bias=True)
10.0.16.14:       (v_proj): Linear(in_features=768, out_features=768, bias=True)
10.0.16.14:       (q_proj): Linear(in_features=768, out_features=768, bias=True)
10.0.16.14:       (out_proj): Linear(in_features=768, out_features=768, bias=True)
10.0.16.14:     )
10.0.16.14:     (activation_fn): GELUActivation()
10.0.16.14:     (self_attn_layer_norm): LayerNorm((768,), eps=1e-05, elementwise_affine=True)
10.0.16.14:     (encoder_attn): BartAttention(
10.0.16.14:       (k_proj): Linear(in_features=768, out_features=768, bias=True)
10.0.16.14:       (v_proj): Linear(in_features=768, out_features=768, bias=True)
10.0.16.14:       (q_proj): Linear(in_features=768, out_features=768, bias=True)
10.0.16.14:       (out_proj): Linear(in_features=768, out_features=768, bias=True)
10.0.16.14:     )
10.0.16.14:     (encoder_attn_layer_norm): LayerNorm((768,), eps=1e-05, elementwise_affine=True)
10.0.16.14:     (fc1): Linear(in_features=768, out_features=3072, bias=True)
10.0.16.14:     (fc2): Linear(in_features=3072, out_features=768, bias=True)
10.0.16.14:     (final_layer_norm): LayerNorm((768,), eps=1e-05, elementwise_affine=True)
10.0.16.14:   )
10.0.16.14: )
10.0.16.14: replace without policy
10.0.16.14: all_reduce_linears: ('encoder_attn.out_proj', 'self_attn.out_proj', '.fc2')
10.0.16.14: num_heads: 12
10.0.16.14: embed_dim: 768
10.0.16.14: name: self_attn.out_proj in all_reduce_linears, weight shape: torch.Size([768, 768])
10.0.16.14: num_heads: 12
10.0.16.14: embed_dim: 768
10.0.16.14: name: encoder_attn.out_proj in all_reduce_linears, weight shape: torch.Size([768, 768])
…
