…
10.0.16.13: tensor_parallel_group: <torch.distributed.distributed_c10d.ProcessGroup object at 0x7f26f88ce970>
10.0.16.13: !deepspeed engine has no moe layers
10.0.16.14: tensor_parallel_group: <torch.distributed.distributed_c10d.ProcessGroup object at 0x7f0d7e002570>
10.0.16.13: tensor_parallel_group: <torch.distributed.distributed_c10d.ProcessGroup object at 0x7f263c026a70>
10.0.16.13: !deepspeed engine has no moe layers
10.0.16.14: _replace_module: DebertaV2ForSequenceClassification(
10.0.16.14:   (deberta): DebertaV2Model(
10.0.16.14:     (embeddings): DebertaV2Embeddings(
10.0.16.14:       (word_embeddings): Embedding(128100, 1024, padding_idx=0)
10.0.16.14:       (LayerNorm): LayerNorm((1024,), eps=1e-07, elementwise_affine=True)
10.0.16.14:       (dropout): StableDropout()
10.0.16.14:     )
10.0.16.14:     (encoder): DebertaV2Encoder(
10.0.16.14:       (layer): ModuleList(
10.0.16.14:         (0-23): 24 x DebertaV2Layer(
10.0.16.14:           (attention): DebertaV2Attention(
10.0.16.14:             (self): DisentangledSelfAttention(
10.0.16.14:               (query_proj): Linear(in_features=1024, out_features=1024, bias=True)
10.0.16.14:               (key_proj): Linear(in_features=1024, out_features=1024, bias=True)
10.0.16.14:               (value_proj): Linear(in_features=1024, out_features=1024, bias=True)
10.0.16.14:               (pos_dropout): StableDropout()
10.0.16.14:               (dropout): StableDropout()
10.0.16.14:             )
10.0.16.14:             (output): DebertaV2SelfOutput(
10.0.16.14:               (dense): Linear(in_features=1024, out_features=1024, bias=True)
10.0.16.14:               (LayerNorm): LayerNorm((1024,), eps=1e-07, elementwise_affine=True)
10.0.16.14:               (dropout): StableDropout()
10.0.16.14:             )
10.0.16.14:           )
10.0.16.14:           (intermediate): DebertaV2Intermediate(
10.0.16.14:             (dense): Linear(in_features=1024, out_features=4096, bias=True)
10.0.16.14:             (intermediate_act_fn): GELUActivation()
10.0.16.14:           )
10.0.16.14:           (output): DebertaV2Output(
10.0.16.14:             (dense): Linear(in_features=4096, out_features=1024, bias=True)
10.0.16.14:             (LayerNorm): LayerNorm((1024,), eps=1e-07, elementwise_affine=True)
10.0.16.14:             (dropout): StableDropout()
10.0.16.14:           )
10.0.16.14:         )
10.0.16.14:       )
10.0.16.14:       (rel_embeddings): Embedding(512, 1024)
10.0.16.14:       (LayerNorm): LayerNorm((1024,), eps=1e-07, elementwise_affine=True)
10.0.16.14:     )
10.0.16.14:   )
10.0.16.14:   (pooler): ContextPooler(
10.0.16.14:     (dense): Linear(in_features=1024, out_features=1024, bias=True)
10.0.16.14:     (dropout): StableDropout()
10.0.16.14:   )
10.0.16.14:   (classifier): Linear(in_features=1024, out_features=2, bias=True)
10.0.16.14:   (dropout): StableDropout()
10.0.16.14: )
10.0.16.13: replace without policy
10.0.16.13: all_reduce_linears: ('output.dense',)
10.0.16.14: _replace_module: DebertaV2Model(
10.0.16.14:   (embeddings): DebertaV2Embeddings(
10.0.16.14:     (word_embeddings): Embedding(128100, 1024, padding_idx=0)
10.0.16.14:     (LayerNorm): LayerNorm((1024,), eps=1e-07, elementwise_affine=True)
10.0.16.14:     (dropout): StableDropout()
10.0.16.14:   )
10.0.16.14:   (encoder): DebertaV2Encoder(
10.0.16.14:     (layer): ModuleList(
10.0.16.14:       (0-23): 24 x DebertaV2Layer(
10.0.16.14:         (attention): DebertaV2Attention(
10.0.16.14:           (self): DisentangledSelfAttention(
10.0.16.14:             (query_proj): Linear(in_features=1024, out_features=1024, bias=True)
10.0.16.14:             (key_proj): Linear(in_features=1024, out_features=1024, bias=True)
10.0.16.14:             (value_proj): Linear(in_features=1024, out_features=1024, bias=True)
10.0.16.14:             (pos_dropout): StableDropout()
10.0.16.14:             (dropout): StableDropout()
10.0.16.14:           )
10.0.16.14:           (output): DebertaV2SelfOutput(
10.0.16.14:             (dense): Linear(in_features=1024, out_features=1024, bias=True)
10.0.16.14:             (LayerNorm): LayerNorm((1024,), eps=1e-07, elementwise_affine=True)
10.0.16.14:             (dropout): StableDropout()
10.0.16.14:           )
10.0.16.14:         )
10.0.16.14:         (intermediate): DebertaV2Intermediate(
10.0.16.14:           (dense): Linear(in_features=1024, out_features=4096, bias=True)
10.0.16.14:           (intermediate_act_fn): GELUActivation()
10.0.16.14:         )
10.0.16.14:         (output): DebertaV2Output(
10.0.16.14:           (dense): Linear(in_features=4096, out_features=1024, bias=True)
10.0.16.14:           (LayerNorm): LayerNorm((1024,), eps=1e-07, elementwise_affine=True)
10.0.16.14:           (dropout): StableDropout()
10.0.16.14:         )
10.0.16.14:       )
10.0.16.14:     )
10.0.16.14:     (rel_embeddings): Embedding(512, 1024)
10.0.16.14:     (LayerNorm): LayerNorm((1024,), eps=1e-07, elementwise_affine=True)
10.0.16.14:   )
10.0.16.14: )
10.0.16.14: _replace_module: DebertaV2Embeddings(
10.0.16.14:   (word_embeddings): Embedding(128100, 1024, padding_idx=0)
10.0.16.14:   (LayerNorm): LayerNorm((1024,), eps=1e-07, elementwise_affine=True)
10.0.16.14:   (dropout): StableDropout()
10.0.16.14: )
10.0.16.14: _replace_module: Embedding(128100, 1024, padding_idx=0)
10.0.16.14: _replace_module: LayerNorm((1024,), eps=1e-07, elementwise_affine=True)
10.0.16.14: _replace_module: StableDropout()
10.0.16.14: _replace_module: DebertaV2Encoder(
10.0.16.14:   (layer): ModuleList(
10.0.16.14:     (0-23): 24 x DebertaV2Layer(
10.0.16.14:       (attention): DebertaV2Attention(
10.0.16.14:         (self): DisentangledSelfAttention(
10.0.16.14:           (query_proj): Linear(in_features=1024, out_features=1024, bias=True)
10.0.16.14:           (key_proj): Linear(in_features=1024, out_features=1024, bias=True)
10.0.16.14:           (value_proj): Linear(in_features=1024, out_features=1024, bias=True)
10.0.16.14:           (pos_dropout): StableDropout()
10.0.16.14:           (dropout): StableDropout()
10.0.16.14:         )
10.0.16.14:         (output): DebertaV2SelfOutput(
10.0.16.14:           (dense): Linear(in_features=1024, out_features=1024, bias=True)
10.0.16.14:           (LayerNorm): LayerNorm((1024,), eps=1e-07, elementwise_affine=True)
10.0.16.14:           (dropout): StableDropout()
10.0.16.14:         )
10.0.16.14:       )
10.0.16.14:       (intermediate): DebertaV2Intermediate(
10.0.16.14:         (dense): Linear(in_features=1024, out_features=4096, bias=True)
10.0.16.14:         (intermediate_act_fn): GELUActivation()
10.0.16.14:       )
10.0.16.14:       (output): DebertaV2Output(
10.0.16.14:         (dense): Linear(in_features=4096, out_features=1024, bias=True)
10.0.16.14:         (LayerNorm): LayerNorm((1024,), eps=1e-07, elementwise_affine=True)
10.0.16.14:         (dropout): StableDropout()
10.0.16.14:       )
10.0.16.14:     )
10.0.16.14:   )
10.0.16.14:   (rel_embeddings): Embedding(512, 1024)
10.0.16.14:   (LayerNorm): LayerNorm((1024,), eps=1e-07, elementwise_affine=True)
10.0.16.14: )
10.0.16.13: replace without policy
10.0.16.13: all_reduce_linears: ('output.dense',)
10.0.16.14: replace without policy
10.0.16.14: all_reduce_linears: ('output.dense',)
10.0.16.14: _replace_module: ModuleList(
10.0.16.14:   (0-23): 24 x DebertaV2Layer(
10.0.16.14:     (attention): DebertaV2Attention(
10.0.16.14:       (self): DisentangledSelfAttention(
10.0.16.14:         (query_proj): Linear(in_features=1024, out_features=1024, bias=True)
10.0.16.14:         (key_proj): Linear(in_features=1024, out_features=1024, bias=True)
10.0.16.14:         (value_proj): Linear(in_features=1024, out_features=1024, bias=True)
10.0.16.14:         (pos_dropout): StableDropout()
10.0.16.14:         (dropout): StableDropout()
10.0.16.14:       )
10.0.16.14:       (output): DebertaV2SelfOutput(
10.0.16.14:         (dense): Linear(in_features=1024, out_features=1024, bias=True)
10.0.16.14:         (LayerNorm): LayerNorm((1024,), eps=1e-07, elementwise_affine=True)
10.0.16.14:         (dropout): StableDropout()
10.0.16.14:       )
10.0.16.14:     )
10.0.16.14:     (intermediate): DebertaV2Intermediate(
10.0.16.14:       (dense): Linear(in_features=1024, out_features=4096, bias=True)
10.0.16.14:       (intermediate_act_fn): GELUActivation()
10.0.16.14:     )
10.0.16.14:     (output): DebertaV2Output(
10.0.16.14:       (dense): Linear(in_features=4096, out_features=1024, bias=True)
10.0.16.14:       (LayerNorm): LayerNorm((1024,), eps=1e-07, elementwise_affine=True)
10.0.16.14:       (dropout): StableDropout()
10.0.16.14:     )
10.0.16.14:   )
10.0.16.14: )
10.0.16.14: replace without policy
10.0.16.14: all_reduce_linears: ('output.dense',)
10.0.16.14: num_attention_heads: 16
10.0.16.14: all_head_size: 1024
10.0.16.13: replace without policy
10.0.16.13: all_reduce_linears: ('output.dense',)
10.0.16.13: replace without policy
…
